Found 147969 images belonging to 2 classes.
<tensorflow.python.keras.preprocessing.image.DirectoryIterator object at 0x2b7c6ae176a0>
Found 20400 images belonging to 2 classes.
<tensorflow.python.keras.preprocessing.image.DirectoryIterator object at 0x2b7cfbd29130>
-------------------------------
Model: "sequential"
_________________________________________________________________
Layer (type)                 Output Shape              Param #   
=================================================================
conv2d (Conv2D)              (None, 198, 198, 16)      448       
_________________________________________________________________
max_pooling2d (MaxPooling2D) (None, 99, 99, 16)        0         
_________________________________________________________________
conv2d_1 (Conv2D)            (None, 97, 97, 16)        2320      
_________________________________________________________________
max_pooling2d_1 (MaxPooling2 (None, 48, 48, 16)        0         
_________________________________________________________________
flatten (Flatten)            (None, 36864)             0         
_________________________________________________________________
dense (Dense)                (None, 128)               4718720   
_________________________________________________________________
dense_1 (Dense)              (None, 1)                 129       
=================================================================
Total params: 4,721,617
Trainable params: 4,721,617
Non-trainable params: 0
_________________________________________________________________
blabla
Epoch 1/50
1/8 [==>...........................] - ETA: 26s - loss: 0.6763 - accuracy: 0.64172/
…
